data.pth (torch, 6743 bytes, 6 tensors)

l1.weight f4 [8, 88]
0.25513315 -0.19145525 0.49393275 -0.5256851 1.3201447 -0.47603545 0.3809604 0.2969831
0.36820737 -0.22585584 -0.40377665 -0.44949868 0.51256615 0.3033986 0.4909957 -0.42145813
0.12236502 -0.38152805 0.6976492 0.4684016 0.6288705 0.27914688 0.40802246 -0.068086624
-0.45691702 -0.6204236 0.615294 0.5218245 -0.40915185 0.45709077 0.3714074 0.39104137
-0.73923385 -0.35099703 -0.7430588 -0.76468223 0.7327224 1.2502358 0.45194674 0.4655022
0.20171966 0.60420346 -0.1202392 0.3291861 0.27410045 0.27112496 0.38122615 0.6351462
-0.123889156 -0.4212944 -0.44137603 0.7148878 0.7455707 0.6136768 0.6492634 1.1616442
0.41902897 -0.4700105 0.4798461 0.56385404 -0.60444146 -0.37471113 -0.28655776 1.021668
0.3866371 0.5425972 0.27478105 0.5217343 0.51674324 0.37182012 0.24872458 0.5125752
-0.84256107 -0.4368419 0.64234114 -0.14918783 0.49118823 0.40402773 1.1582395 0.9985082
0.7775204 0.53854984 -0.13118392 0.041813444 0.51507354 -0.2752549 0.20140982 0.18229154
0.07387631 0.3412531 -0.43710932 0.042304706 -0.1829936 0.22953072 -0.06972721 0.24202402
-0.15958796 0.204648 0.15998986 -0.006664928 0.5546855 0.36081597 -0.85027933 0.13561048
-0.31094417 0.44511157 -0.284428 0.517562 -0.058561046 0.33015475 -0.821019 0.3023126
0.71324193 0.3319109 0.054019906 0.6189157 0.43510887 -0.24528311 -0.046388928 0.3526893
0.64019686 -0.35846996 0.5195548 0.42762938 -0.7398887 -0.05564849 0.065150216 0.24474956
0.48921305 0.36340308 0.6022851 0.2123927 0.59104115 -0.0833433 0.25974894 -0.16530356
-0.19973487 0.55255616 -0.06617016 0.8604275 0.50518024 -0.51742184 0.18505877 0.17244133
-0.16210899 -0.05044226 -0.05809256 0.11822884 0.5505581 0.21245758 0.16550155 1.1465417
0.60297096 0.5011085 -0.1644149 0.5441223 -0.26128888 0.5070476 -0.039988205 0.5878636
-0.7384723 -0.35481608 0.8337159 0.46877822 -0.20174432 0.34732485 0.27200058 -0.5773245
-0.48136118 0.40623292 0.2696193 0.42112106 -0.36838868 0.33630052 0.059456185 0.008765501
-0.1305271 0.18081568 -0.73493326 0.29774922 -0.5369882 0.5031858 0.13196242 0.38186923
0.05958787 0.2848664 0.3343391 0.5362532 -0.3340345 0.29675373 -0.53667146 0.25716892
-0.060915187 0.51758105 -0.3168327 0.49041972 0.044548884 0.2846556 -0.5367783 -0.22891818
-0.012257844 0.3674521 0.0901524 -0.13757937 0.23726894 0.15583599 -0.09615753 0.33047453
0.60566473 -0.11718316 0.6804133 0.6692447 -0.3217401 -0.932676 0.17145145 0.32656208
0.07728965 0.41899666 0.16968514 0.29643115 -0.45695972 0.07546169 0.2769745 -0.0717649
-0.09633151 -0.27641135 0.33733082 -0.16973184 0.27198306 -0.24148788 0.11793639 -0.08696514
0.6142895 0.5127855 -0.14954059 -0.19397275 -0.121698014 0.39328793 0.21040006 0.06692262
-0.11125024 0.6255741 0.13440654 0.59403706 -0.054934118 0.48779145 0.17162417 0.047262035
-0.36735824 -0.0649767 0.23167533 0.50026584 -0.021597058 0.30559766 0.3059284 -0.5369927
00000000: d0a0 823e d80c 44be c1e4 fc3e 4c93 06bf
00000010: 80fa a83f ebba f3be 3e0d c33e 2b0e 983e
00000020: ad85 bc3e c146 67be d0bb cebe b124 e6be
00000030: 8937 033f 1057 9b3e ca63 fb3e 5cc9 d7be
00000040: 839a fa3d a557 c3be 2399 323f 56d2 ef3e
00000050: a8fd 203f 57ec 8e3e 52e8 d03e 0071 8bbd
00000060: 07f1 e9be 15d4 1ebf e883 1d3f 4a96 053f
00000070: 5a7c d1be cd07 ea3e 1c29 be3e 9336 c83e
00000080: 6e3e 3dbf e2b5 b3be 1a39 3ebf 37c2 43bf
00000090: b293 3b3f ba07 a03f 9065 e73e 4e56 ee3e
000000a0: 998f 4e3e 14ad 1a3f f83f f6bd 158b a83e
000000b0: e556 8c3e e4d0 8a3e 1330 c33e f198 223f
000000c0: 99b9 fdbd e6b3 d7be 0afc e1be e302 373f
000000d0: b9dd 3e3f ec19 1d3f 2036 263f c2b0 943f
000000e0: f78a d63e 37a5 f0be 63ae f53e bd58 103f
000000f0: adbc 1abf 23da bfbe b3b7 92be 04c6 823f
00000100: 4cf5 c53e a6e7 0a3f 1ab0 8c3e 6190 053f
00000110: 4949 043f 355f be3e a8b1 7e3e 2138 033f
00000120: 15b2 57bf bea9 dfbe 7870 243f b2c4 18be
00000130: 067d fb3e b9dc ce3e 3141 943f 3c9e 7f3f
00000140: 940b 473f 67de 093f 1455 06be 9344 2b3d
00000150: dcdb 033f 36ee 8cbe 603e 4e3e a2aa 3a3e
00000160: 764c 973d bab8 ae3e cbcc dfbe b347 2d3d
00000170: ad62 3bbe 1a0a 6b3e 24cd 8ebd 25d5 773e
00000180: 076b 23be 3f8f 513e 62d4 233e 7865 dabb
00000190: deff 0d3f dfbc b83e e8ab 59bf 79dd 0a3e
000001a0: 1334 9fbe aae5 e33e 8ca0 91be f17e 043f
000001b0: b5dd 6fbd 0b0a a93e 4d2e 52bf b8c8 9a3e
000001c0: 0697 363f 3af0 a93e fa43 5d3d 4271 1e3f
000001d0: 97c6 de3e 7f2b 7bbe 5102 3ebd b193 b43e
000001e0: f1e3 233f 6089 b7be 8b01 053f 3df2 da3e
000001f0: 5969 3dbf acef 63bd 7a6d 853d a19f 7a3e
00000200: 227a fa3e f80f ba3e 5b2f 1a3f 797d 593e
00000210: 794e 173f e4af aabd d0fd 843e 5645 29be
00000220: 4c87 4cbe 5274 0d3f 3984 87bd fa44 5c3f
00000230: 7e53 013f c275 04bf 0c80 3d3e 7694 303e
00000240: e6ff 25be 8b9c 4ebd 77f2 6dbd f621 f23d
00000250: 60f1 0c3f 7b8e 593e 3d79 293e e1c1 923f
00000260: 4e5c 1a3f a648 003f 615c 28be 994b 0b3f
00000270: a8c7 85be dfcd 013f acca 23bd 3b7e 163f
00000280: 850c 3dbf 74aa b5be 686e 553f b303 f03e
00000290: 1096 4ebe 90d4 b13e a943 8b3e 8acb 13bf
000002a0: f974 f6be c3fd cf3e 8a0b 8a3e 2e9d d73e
000002b0: 719d bcbe 952f ac3e 5488 733d 2d9d 0f3c
000002c0: e5a8 05be bf27 393e 9624 3cbf 9672 983e
000002d0: 0f78 09bf c9d0 003f 2821 073e 5d84 c33e
000002e0: 6912 743d 02da 913e 7f2e ab3e e447 093f
000002f0: 9206 abbe 1bf0 973e 4d63 09bf a5ab 833e
00000300: 3482 79bd 3180 043f e537 a2be 4b18 fb3e
00000310: e478 363d 61be 913e 4d6a 09bf 8769 6abe
00000320: 20d5 48bc af22 bc3e d2a1 b83d 9be1 0cbe
00000330: a1f6 723e 7893 1f3e 3dee c4bd f533 a93e
00000340: d80c 1b3f b9fd efbd 912f 2e3f 9f53 2b3f
00000350: 1ebb a4be dbc3 6ebf f890 2f3e 2533 a73e
00000360: 094a 9e3d bb86 d63e f1c1 2d3e d3c5 973e
00000370: a0f6 e9be a98b 9a3d 9acf 8d3e 7af9 92bd
00000380: 7449 c5bd ca85 8dbe a0b6 ac3e 2fce 2dbe
00000390: 5d41 8b3e 9948 77be a288 f13d c81a b2bd
000003a0: 1442 1d3f e945 033f 2b21 19be cba0 46be
000003b0: cf3c f9bd 095d c93e 1d73 573e ba0e 893d
000003c0: 2ad7 e3bd a025 203f dea1 093e d012 183f
000003d0: 9902 61bd cdbf f93e 3fbe 2f3e d695 413d
000003e0: 6116 bcbe 8112 85bd 4c3c 6d3e 6c11 003f
000003f0: 50ec b0bc 4c77 9c3e a6a2 9c3e 5b78 09bf

l1.bias f4 [8]
0.85382956 0.85000205 0.5366776 0.6704061 1.001634 0.7863013 0.6599639 0.6057071
00000000: 9394 5a3f bc99 593f b463 093f bc9f 2b3f
00000010: 8b35 803f 0b4b 493f 65f3 283f 9f0f 1b3f

l2.weight f4 [8, 8]
1.2337329 0.7559467 0.063803434 0.2893418 -0.28995526 -1.5020726 0.6111172 1.1637433
-1.1126063 0.7623069 0.90086 1.1099294 1.3973742 0.5025314 1.4274936 0.2454
2.078238 -0.0974691 -0.7414299 -0.3772297 -0.20439927 0.7735294 0.4343716 0.09048557
0.25512233 0.8277132 0.96051484 -0.17952618 -0.63605636 1.428422 0.3725362 -0.2562638
0.13363431 -0.8105353 -1.21142 0.4506937 -0.095215194 1.2496996 -0.09772636 1.2460519
-0.10142128 0.421859 1.3817817 1.1222775 -0.92656004 1.083748 1.3164402 0.631368
-0.30460286 1.1836644 0.6814566 1.491857 -0.39412966 0.33030018 -1.3911355 1.0341468
1.077243 1.1350176 -0.5369496 0.21179909 1.5043154 0.6932826 -1.4239875 -0.7630358
00000000: f6ea 9d3f b985 413f 60ab 823d 9c24 943e
00000010: 0475 94be ea43 c0bf 2d72 1c3f 8af5 943f
00000020: e269 8ebf 8c26 433f c39e 663f 2b12 8e3f
00000030: 28dd b23f e6a5 003f 1cb8 b63f 234a 7b3e
00000040: da01 0540 e19d c7bd 5ace 3dbf 4024 c1be
00000050: 0b4e 51be 0606 463f f465 de3e 8050 b93d
00000060: 659f 823e 03e5 533f 4de4 753f b6d5 37be
00000070: 97d4 22bf 88d6 b63f 11bd be3e 0235 83be
00000080: 6fd7 083e 3e7f 4fbf d00f 9bbf 53c1 e63e
00000090: 2f00 c3bd 28f6 9f3f c224 c8bd a17e 9f3f
000000a0: f6b5 cfbd e7fd d73e 39de b03f caa6 8f3f
000000b0: 0a33 6dbf 41b8 8a3f 1d81 a83f 55a1 213f
000000c0: e8f4 9bbe 5182 973f f173 2e3f 2cf5 be3f
000000d0: 5dcb c9be 1b1d a93e ba10 b2bf ec5e 843f
000000e0: 19e3 893f 4248 913f 8775 09bf dce1 583e
000000f0: 688d c03f f87a 313f 3945 b6bf 5056 43bf

l2.bias f4 [8]
0.43500262 0.5407046 0.5888966 -0.6350073 0.6218507 -0.11508104 0.3203454 0.81159776
00000000: aab8 de3e 9e6b 0a3f edc1 163f d78f 22bf
00000010: 9c31 1f3f 9caf ebbd 5004 a43e dfc4 4f3f

l3.weight f4 [13, 8]
-0.27149707 0.51370394 -1.4867551 -1.68053 -0.6421562 -1.534244 0.5944011 0.5838906
-0.844313 -0.5524179 0.24400662 0.51326936 -1.9745522 -0.5912481 0.06384673 0.6176685
0.121933505 -0.8151429 0.25347075 -1.3241906 0.33585945 -0.10086086 0.4753069 -0.46283743
0.4466936 -1.3214751 0.7434083 -1.8504499 -1.3028116 -1.372501 -1.2342347 0.5893845
0.7344791 -1.80556 0.5089009 -0.676273 0.1496398 -0.027113182 -0.95798343 -1.7650019
-1.3359585 -0.56015503 -0.4705004 0.12998132 -0.6024495 0.4192144 0.58109295 -0.017908206
0.16364823 0.7712744 0.15364297 -1.8452939 -1.076472 -0.1945743 -1.6033502 -0.30208406
-1.7405589 0.70087034 -1.5659077 -0.270117 -2.0801995 0.58184105 0.0033517715 0.04908638
-1.6962146 -1.7035965 0.716207 0.36098132 0.5686871 -0.3014785 -0.5012381 -0.045568973
-0.119843304 -0.8528307 0.2230919 0.48215988 -1.3591282 0.6893058 -0.034247566 -1.0269363
-2.2417996 0.1428066 0.6084411 -1.7314951 0.48671797 -1.2496651 -1.2946764 0.7641429
0.31203994 -0.18335953 -1.5210655 -0.8218615 -0.15022798 0.13574217 0.84794974 -1.4152526
-1.6273615 0.15765175 -0.10755653 0.10907864 0.869779 0.374373 -0.7797447 -1.2327942
00000000: aa01 8bbe 1a82 033f fe4d bebf 9b1b d7bf
00000010: 5964 24bf 1b62 c4bf ac2a 183f db79 153f
00000020: e624 58bf 426b 0dbf dfdc 793e 9f65 033f
00000030: 20be fcbf 095c 17bf 13c2 823d 861f 1e3f
00000040: 46b8 f93d 35ad 50bf ebc6 813e 147f a9bf
00000050: c5f5 ab3e 2390 cebd 6d5b f33e 07f9 ecbe
00000060: 06b5 e43e 1926 a9bf 0250 3e3f 8bdb ecbf
00000070: 88c2 a6bf 1dae afbf 67fb 9dbf e7e1 163f
00000080: d306 3c3f 971c e7bf 5447 023f 3a20 2dbf
00000090: 2d3b 193e 771c debc 673e 75bf 95eb e1bf
000000a0: b000 abbf 5266 0fbf 6ee5 f0be d319 053e
000000b0: 213a 1abf 45a3 d63e 82c2 143f 3bb4 92bc
000000c0: 6793 273e 3d72 453f 9554 1d3e 9732 ecbf
000000d0: d6c9 89bf 7c3e 47be 943a cdbf c3aa 9abe
000000e0: a2ca debf 3d6c 333f aa6f c8bf c74c 8abe
000000f0: fd21 05c0 89f3 143f 65a9 5b3b cd0e 493d
00000100: 8f1d d9bf 730f dabf 5859 373f 8bd2 b83e
00000110: 7a95 113f 645b 9abe 2451 00bf 88a6 3abd
00000120: 6870 f5bd 1d53 5abf 3472 643e a9dd f63e
00000130: eaf7 adbf 5876 303f 2d47 0cbd a672 83bf
00000140: a579 0fc0 e53b 123e ccc2 1b3f a2a1 ddbf
00000150: 1933 f93e 07f5 9fbf f5b7 a5bf de9e 433f
00000160: b3c3 9f3e 9ac2 3bbe 46b2 c2bf 8465 52bf
00000170: 5dd5 19be ffff 0a3e 3c13 593f ff26 b5bf
00000180: 624d d0bf 766f 213e 9946 dcbd 9f64 df3d
00000190: d6a9 5e3f d1ad bf3e 599d 47bf 33cc 9dbf

l3.bias f4 [13]
0.24137919 -0.19634297 -0.1276216 0.31456003 -0.16840065 -0.7469267 0.3113679 0.18619049
-0.3254492 -0.18205416 0.03880435 -0.22060648 0.094061814
00000000: 1b2c 773e 220e 49be 3daf 02be 030e a13e
00000010: 3871 2cbe 9736 3fbf 9d6b 9f3e b8a8 3e3e
00000020: 47a1 a6be 686c 3abe 4ff1 1e3d aae6 61be
00000030: 7ba3 c03d
